agent.pth (torch, 263759 bytes, 7 tensors)

nn_layer.0.weight f4 [256, 116]
0	0xbd89df3f	-0.06732034
1	0x3bfe4c20	0.0077605397
2	0x3d04106e	0.03224223
3	0x3d19f93e	0.03759121
4	0x3d915965	0.07097129
5	0xbdb1a099	-0.0867321
6	0x3a8ead40	0.0010885373
7	0x3d61480a	0.055000342
8	0xbc92e97c	-0.0179336
9	0xbd62d9cd	-0.055383492
10	0xbc33bde0	-0.010970563
11	0xbd6f28c3	-0.058388483
12	0x3dbcf0ad	0.09225593
13	0xbd912582	-0.07087232
14	0xbb0d1920	-0.0021529868
15	0xbda18e40	-0.0788846
16	0xbc10c970	-0.008837089
17	0xbdadc2df	-0.08484434
18	0xbd111897	-0.03542384
19	0x3d884107	0.06653028
20	0x3d12802a	0.035766758
21	0xbdbc5a07	-0.09196859
22	0x3d80705d	0.062714316
23	0x3cd93094	0.026512422
24	0xbd5ba805	-0.053627033
25	0xbd6e4c5d	-0.058178294
26	0x3d2a1cfa	0.04153154
27	0x3b6fe7a0	0.0036606565
28	0x3cc5bf20	0.024138987
29	0x3cb712a4	0.022347756
30	0x3ceb0a40	0.028691411
31	0xbcb76f80	-0.022392035
32	0xbda7c5ad	-0.081920005
33	0xbda23518	-0.07920283
34	0x3d94e883	0.072709106
35	0xbc2d7ba0	-0.0105885565
36	0x3d5e0da2	0.05421222
37	0x3d68147a	0.056660153
38	0x3d9651b7	0.073398046
39	0x3b622140	0.0034504682
40	0x3b04ac00	0.0020244122
41	0xbcb98224	-0.022645064
42	0x3ce94030	0.02847299
43	0xbdbacb1d	-0.09120772
44	0xbda54048	-0.08068901
45	0xbcb6cefc	-0.022315495
46	0xbd18957d	-0.037251938
47	0xbd27943e	-0.04091286
48	0x3d17d516	0.03706845
49	0xbd86cfa2	-0.065825716
50	0xbd80bad0	-0.06285632
51	0xbbf37f70	-0.007430963
52	0x3d634d22	0.05549348
53	0x3c161660	0.009160608
54	0x3d82d4c3	0.06388237
55	0x3bf0ca50	0.0073483363
56	0xbc5d33c0	-0.013501108
57	0x3d551ec6	0.0520313
58	0xbd4fd1ba	-0.05073712
59	0xbcbe0068	-0.023193553
60	0xbd5a281e	-0.053260915
61	0xbd1844cb	-0.03717498
62	0x3bcabcd0	0.006187059
63	0xbbc3bc80	-0.0059733987
64	0x3d4f8e8a	0.050673045
65	0xbc562990	-0.013071433
66	0x3d32923a	0.043596484
67	0xb95cda00	-0.00021062046
68	0x3d96315f	0.073336355
69	0x3d3b7ae6	0.045771502
70	0xbd717dc3	-0.058957826
71	0xbd271e68	-0.040800482
72	0xbcf7fc20	-0.03027159
73	0x3d1faa66	0.038980864
74	0xbd1b0ff7	-0.037857022
75	0x3bd8a9b0	0.006612025
76	0x3bcca5c0	0.006245345
77	0x3d11969a	0.035544015
78	0xbd40be36	-0.0470564
79	0x3c69ca10	0.014269367
80	0xbdac6b25	-0.08418874
81	0x3db2db03	0.087331794
82	0x3bb0d810	0.0053968504
83	0x3d06fea2	0.03295768
84	0xbd979288	-0.074009955
85	0xbda018da	-0.0781724
86	0x3d92b5c7	0.071635775
87	0x3bb94590	0.0056540444
88	0x3c838f18	0.016059443
89	0x3ca77858	0.020443127
90	0xbcd45b60	-0.025922477
91	0xbbc59be0	-0.0060305446
92	0x3d931b9f	0.07183003
93	0xbd111fff	-0.035430904
94	0xbd08fcc9	-0.0334442
95	0x3dadf449	0.08493859
96	0x3cefd7c0	0.029277682
97	0x3cac6418	0.021043822
98	0x3da71607	0.08158498
99	0xbd4c022d	-0.049806762
100	0x3d05bf62	0.03265322
101	0xbd93ea52	-0.072224274
102	0xbd1d2cfa	-0.03837297
103	0x3cc9e2b4	0.024644233
104	0x3d486216	0.048921667
105	0xbc8fde6c	-0.017562114
106	0xbd6d9c89	-0.05801061
107	0x3da0fccd	0.07860718
108	0x3d3dd822	0.0463487
109	0xbce45f8c	-0.027877592
110	0xbd5e681e	-0.054298513
111	0x3baa6680	0.0052002072
112	0xbd8ed836	-0.06974833
113	0x3cb1d020	0.021705687
114	0xbd5fc721	-0.054633263
115	0x3da02e61	0.07821346
116	0xbd92cee4	-0.071683675
117	0x3d99162b	0.07474931
118	0x3c78b3b0	0.01517956
119	0x3d027dbe	0.0318582
120	0x3d20083a	0.039070345
121	0x3c671c08	0.014105804
122	0xbd9aa726	-0.07551412
123	0xbd85ca5e	-0.06532739
124	0xbcd399e0	-0.02583021
125	0xbd02ad9e	-0.031903856
126	0xbd7d498c	-0.061837718
127	0x3d84a307	0.064764075
128	0x3d629672	0.055319257
129	0x3d7557e2	0.059898265
130	0x3c9872c8	0.01860942
131	0xbc987260	-0.018609226
132	0x3d30eeee	0.04319661
133	0x3dbbb887	0.09166055
134	0xbc1334a0	-0.008984715
135	0xbc0ac128	-0.008468904
136	0xbd49d47f	-0.049274918
137	0x3d44f352	0.04808361
138	0x3d09e2d2	0.03366358
139	0xbd89c8dc	-0.06727764
140	0xbcb20a50	-0.021733433
141	0x3d93a9cb	0.0721012
142	0x3d7b0302	0.061282165
143	0x3d9236c3	0.07139351
144	0x3d7f1466	0.062275313
145	0x3d55b3ce	0.05217343
146	0xbd7fe688	-0.06247571
147	0x3d2d99ea	0.042383112
148	0x3d6b218e	0.057405047
149	0x3b5d1b20	0.0033738092
150	0x3d9a80fd	0.07544134
151	0xbd605a3e	-0.05477356
152	0x3c9a6f4c	0.018851899
153	0xbd6636eb	-0.056204718
154	0x3cbd01b4	0.023072101
155	0xbda3d6f6	-0.07999985
156	0xbdb39261	-0.08768154
157	0x3d8544c1	0.065072544
158	0x3c81dea4	0.015853234
159	0xbd7ee14a	-0.06222657
160	0x3d4278f6	0.04747864
161	0xbd8e6228	-0.069523156
162	0x3d298c8a	0.041393794
163	0xbdb2313e	-0.087007985
164	0x3daab9b1	0.08336199
165	0xbc519918	-0.012792848
166	0x3baf7660	0.0053546876
167	0xbcf7ba10	-0.030240089
168	0x3c3a4460	0.011368841
169	0x3cb9a3f0	0.02266118
170	0x3b605100	0.0034227967
171	0xbd5d4c4b	-0.054027837
172	0x3db04845	0.08607534
173	0x3d1090fa	0.03529451
174	0x3b652d80	0.0034969747
175	0xbd0c412e	-0.034241848
176	0x3b81dd50	0.00396315
177	0x3cc4a2cc	0.024003409
178	0xbd9e1740	-0.07719278
179	0x3db22249	0.086979456
180	0xbcb2b5c4	-0.021815188
181	0xbdb173c8	-0.08664662
182	0xbcd5b704	-0.026088245
183	0x3d60a06e	0.054840498
184	0x3db04361	0.086066015
185	0xbcb974e4	-0.022638746
186	0x3cdfb850	0.027309567
187	0xbd80482a	-0.06263764
188	0x3cdef914	0.02721838
189	0x3d239a76	0.039942227
190	0x3d6dcd7a	0.058057286
191	0xbc3bd5a0	-0.011464506
192	0x3bc36e80	0.0059641004
193	0xbd924f59	-0.071440406
194	0x3acf6b80	0.0015824884
195	0x3dbd02d5	0.09229056
196	0xbd55c72a	-0.05219189
197	0x3d64bb8e	0.05584293
198	0xbc178f90	-0.009250537
199	0x3d80b811	0.06285108
200	0x3ade0dc0	0.0016941354
201	0xbd9d7a28	-0.07689315
202	0x3adaa800	0.0016682148
203	0x3dab2603	0.083568595
204	0x3d8d0d7b	0.06887337
205	0xbdb397ba	-0.08769174
206	0xbd94523d	-0.07242248
207	0x3d2b606e	0.04184001
208	0x3db9d179	0.09073157
209	0x3bcb27e0	0.006199822
210	0x3d01e49a	0.031712152
211	0x3d929379	0.071570344
212	0xbbb49020	-0.005510345
213	0x3ca15be0	0.01969713
214	0xbd515563	-0.05110682
215	0x3d84affb	0.06478878
216	0xbd8d23a2	-0.06891562
217	0x3c2c8c50	0.0105315
218	0xbc628708	-0.013826139
219	0xbd6f6df2	-0.05845446
220	0xbd8589a6	-0.06520395
221	0xbcb4a9f8	-0.022053704
222	0xbd825186	-0.063632056
223	0x3dac112f	0.08401715
224	0x3c7e5f18	0.015525602
225	0xbca7071c	-0.020389132
226	0x3d91f043	0.071259044
227	0x3d028620	0.031866193
228	0xbcb843fc	-0.022493355
229	0x3b972b60	0.004613325
230	0x3c6282c0	0.013825119
231	0xbba18c50	-0.0049300566
232	0x3d5bda92	0.05367524
233	0x3da471db	0.08029529
234	0xbd9af970	-0.07567108
235	0xbdb7dc52	-0.0897757
236	0xbd97cc3e	-0.07412003
237	0x3d9732cf	0.07382738
238	0x3d98406b	0.07434162
239	0xbce416c8	-0.027842894
240	0xbdb6e6ec	-0.089307636
241	0x3ca5f754	0.020259537
242	0xbd3737f9	-0.044731114
243	0x3d1127fe	0.03543853
244	0xbdae53f9	-0.0851211
245	0xbd79794b	-0.06090669
246	0xbc7c65d0	-0.015405133
247	0x3ccdb6bc	0.025111549
248	0xbd60f801	-0.054924015
249	0xbd5ffef4	-0.0546865
250	0xbd979e2f	-0.07403218
251	0xbcd2bf18	-0.025725886
252	0x3c1c5120	0.009540826
253	0xbbc8dc80	-0.0061298013
254	0x3caf031c	0.021363787
255	0x3da884f1	0.082284816

nn_layer.0.bias f4 [256]
0	0xbd7fe1ce	-0.062471204
1	0x3c8cbeb8	0.017180786
2	0xbd5af41a	-0.05345545
3	0xbd42d29c	-0.047564134
4	0xbd26bf43	-0.040709745
5	0xbdacf4a0	-0.08445096
6	0xbd8d314d	-0.06894169
7	0xbd417539	-0.047230933
8	0x3da08a0d	0.07838831
9	0x3d997c6b	0.07494434
10	0x3ccae080	0.024765253
11	0x3c2ea788	0.01066006
12	0xbcbe7b08	-0.023252025
13	0xbd4c224d	-0.0498374
14	0x3dac5651	0.08414901
15	0x3d94068d	0.07227812
16	0x3d180882	0.03711749
17	0x3d1c78de	0.038201205
18	0x3cd867d4	0.026416697
19	0xbd5ac148	-0.053406984
20	0xbd849639	-0.06473965
21	0xbb191e60	-0.0023364052
22	0x3b443bc0	0.002994284
23	0x3d637c36	0.05553838
24	0xbd885d09	-0.0665837
25	0x3ba41d30	0.0050083622
26	0x3d3161fe	0.043306343
27	0xbd5a9ede	-0.053374164
28	0xbd915c66	-0.07097702
29	0x3d2ab19e	0.041673295
30	0xbd16e428	-0.03683868
31	0x3ba44f10	0.005014308
32	0xbd021a95	-0.03176363
33	0xbd1ddf68	-0.038543135
34	0xbc56ff20	-0.01312235
35	0xbd9a3e49	-0.07531411
36	0x3d03e756	0.03220304
37	0x3d2f35aa	0.042775787
38	0x3d803b1d	0.06261275
39	0xbcf134d0	-0.029444128
40	0x3d2793ce	0.040912442
41	0xbb9e9e90	-0.0048406795
42	0x3d782d76	0.06059023
43	0x3db0be9f	0.08630108
44	0x3d46ac5e	0.048504226
45	0x3cb74558	0.022371933
46	0x3bc4eaa0	0.006009415
47	0x3d994541	0.07483912
48	0xbd258dd7	-0.040418472
49	0x3d168baa	0.036754288
50	0xbd496831	-0.04917163
51	0x3c88ca48	0.016698018
52	0x3d53501e	0.051590078
53	0x3d881313	0.06644263
54	0x3cc6c33c	0.024263017
55	0xbd87c62c	-0.06629595
56	0x3ca61960	0.020275772
57	0x3d3ca562	0.04605616
58	0x3dbcca65	0.09218291
59	0xbd2fee7d	-0.04295205
60	0x3d7d68c6	0.061867498
61	0xbdad3605	-0.08457569
62	0xbd957fa4	-0.07299736
63	0xbd81614e	-0.063173875
64	0x3db7383f	0.08946275
65	0xbd880eff	-0.06643485
66	0xbc9b77ec	-0.018978082
67	0xbd6519f8	-0.05593297
68	0xbc8be0f4	-0.01707504
69	0x3d261fd6	0.040557705
70	0x3d97c419	0.074104495
71	0x3d3b7ea2	0.045775063
72	0xbd8dbcde	-0.06920789
73	0x3d9aa053	0.07550111
74	0x3d65e43e	0.05612587
75	0x3caa1e80	0.020766497
76	0x3dac49af	0.084124915
77	0x3d9e8493	0.0774013
78	0x3cd7fa58	0.02636449
79	0x3c3feaa8	0.011713661
80	0xbd75ae3e	-0.059980623
81	0x3d284a8e	0.041086726
82	0x3d9dfb27	0.07713919
83	0x3c7ed888	0.015554555
84	0x3d175652	0.036947556
85	0x3b6c64c0	0.0036070794
86	0xbcd08f54	-0.02545897
87	0x3d72fb3a	0.05932162
88	0xbd122fd5	-0.035690147
89	0xbd1d9d49	-0.038480077
90	0xbd900e82	-0.07034017
91	0x3d3b41d6	0.045717083
92	0xbd490cbf	-0.04908442
93	0x3db874d1	0.09006656
94	0xbd70bd94	-0.058774546
95	0x3da02855	0.07820193
96	0xbc87a6d8	-0.01655905
97	0x3d8a04af	0.067391746
98	0xbcb9ac28	-0.022665098
99	0xbd704917	-0.058663454
100	0x396b6400	0.000224486
101	0x3db9087f	0.090348236
102	0xbda20746	-0.079115435
103	0xbbd03b00	-0.0063546896
104	0xbd7c4ccc	-0.061596677
105	0x3d9eef19	0.07760448
106	0xbd0a0d1e	-0.033703916
107	0x3d7811e6	0.060563944
108	0x3d8fceff	0.07021903
109	0x3db7d3e7	0.08975964
110	0xbc6cb640	-0.014447749
111	0xbcc87200	-0.024468422
112	0xbc5d86c0	-0.013520896
113	0x3c924efc	0.017859928
114	0xbda63a98	-0.081166446
115	0xbd63c417	-0.055606928
116	0x3c0f9b08	0.00876499
117	0x3d6945e2	0.05695141
118	0xbcb728fc	-0.02235841
119	0x3d875161	0.06607319
120	0xbdbbfaf1	-0.09178723
121	0x3d87c783	0.06629851
122	0x3d91778b	0.07102879
123	0xbd1d4831	-0.038398925
124	0x3db1dea7	0.08685046
125	0xbd52fc67	-0.05151024
126	0xbdb9539d	-0.09049151
127	0x3cd2af78	0.025718436
128	0x3bd97050	0.006635703
129	0xbd9179d2	-0.071033135
130	0xbc68b340	-0.014202893
131	0xbd894d26	-0.06704168
132	0xbc289940	-0.010290444
133	0xbd68cb61	-0.056834582
134	0x3c1d3900	0.009596109
135	0xbda78c9b	-0.08181115
136	0x3d329182	0.0435958
137	0x3d864ec1	0.0655799
138	0xbc92171c	-0.017833285
139	0x3bc012f0	0.0058616325
140	0xbd36d6c3	-0.044638406
141	0xbd0c9f4b	-0.0343316
142	0xbd41a025	-0.047271866
143	0xbd32d1b2	-0.043657012
144	0x3da4a947	0.080400996
145	0x3be136a0	0.006872967
146	0xbba87fa0	-0.005142167
147	0xbd61b0fe	-0.055100434
148	0xbb452ce0	-0.0030086562
149	0xbd2f7eb6	-0.04284545
150	0xbd5cb685	-0.053885
151	0xbd510ae9	-0.051035795
152	0xbd52ccf5	-0.051464994
153	0xbdbb030b	-0.0913144
154	0xbd1e0df5	-0.03858753
155	0x3cbe9568	0.023264602
156	0xbda30e33	-0.07961693
157	0xbba59170	-0.005052738
158	0x3d121fa2	0.0356747
159	0x3c2d55a8	0.010579504
160	0xbd88da5e	-0.06682275
161	0xbda9fecb	-0.08300551
162	0x3d888e5f	0.0666778
163	0xbc7869c8	-0.015161939
164	0xbd8176ac	-0.06321463
165	0x3c0f6700	0.008752584
166	0xbd13d5d9	-0.036092613
167	0xbd209ca3	-0.03921188
168	0xbc720db0	-0.014773771
169	0xbd9fc213	-0.078006886
170	0x3d8d7f2b	0.06909021
171	0x3c31a690	0.010842934
172	0xbd153fbb	-0.03643773
173	0x3c91d0b4	0.017799713
174	0xbd0b4bae	-0.03400772
175	0x3d974de1	0.07387901
176	0xbc7b9350	-0.015354946
177	0x3d9fda45	0.078053035
178	0xbd89f1d4	-0.06735578
179	0x3d7d27d6	0.06180557
180	0xbc7d82d8	-0.01547309
181	0xbd486ebe	-0.048933737
182	0xbd81e32c	-0.06342158
183	0xbd08d8a8	-0.033409745
184	0xbd6cbf21	-0.057799462
185	0x3b61bbe0	0.0034444258
186	0x3d8630d9	0.06552286
187	0xbd2274c8	-0.039662153
188	0x3cbf63c8	0.02336301
189	0x3cbc7394	0.02300433
190	0xbd9e061c	-0.07716009
191	0x3d54edc6	0.05198457
192	0x3d9a0087	0.07519632
193	0x3d27ad72	0.040936895
194	0x3d60825a	0.054811813
195	0xbc978188	-0.018494383
196	0xbd039558	-0.032124847
197	0xbdb95246	-0.090488955
198	0x3cd8b084	0.026451357
199	0x3da20511	0.079111226
200	0x3d98d1f7	0.074619226
201	0xbd2260fe	-0.03964328
202	0x3da4300b	0.08016976
203	0xbc881c38	-0.016615018
204	0x3aebcd80	0.0017990321
205	0xbcea16e8	-0.028575376
206	0x3d193222	0.037401326
207	0x3cbb6290	0.022874147
208	0x3d897741	0.06712199
209	0x3d04e116	0.03244122
210	0x3caec7b4	0.02133546
211	0x3d80f913	0.06297507
212	0xbd1dbb05	-0.038508434
213	0x3d82e0a7	0.06390505
214	0xbd72a089	-0.05923513
215	0x3cc48e7c	0.023993723
216	0x3d0c9eea	0.03433124
217	0x3d5013b6	0.050800048
218	0xbda97350	-0.08273947
219	0xbdae83c7	-0.08521228
220	0x3db1a537	0.0867409
221	0x3bebbd50	0.0071941987
222	0xbd7a5c48	-0.061123163
223	0xbc025560	-0.007954925
224	0x3da074bb	0.078347646
225	0x3cc433e4	0.023950525
226	0x3d9e93d3	0.07743039
227	0xbcf90776	-0.030399065
228	0xbd4dba04	-0.050226226
229	0x3d92b92f	0.07164227
230	0x3cd3fc88	0.025877252
231	0x3db1401f	0.08654808
232	0x3db39cb3	0.087701224
233	0xbcb64d28	-0.022253588
234	0x3c950bc0	0.01819408
235	0x3da46ae1	0.08028198
236	0x3d2cb636	0.042165957
237	0x3d9766ff	0.07392692
238	0x3da92bf9	0.0826034
239	0xbdaa19ae	-0.08305679
240	0xbbbd2440	-0.0057721436
241	0xbcb11dec	-0.021620713
242	0xbd8df682	-0.06931783
243	0xbd48fc15	-0.04906853
244	0x3c8b5da4	0.017012425
245	0xbd7d5264	-0.061846152
246	0x3c68c678	0.014207475
247	0xbdae2eac	-0.08504996
248	0xbca9e824	-0.020740576
249	0x3cadbdcc	0.021208666
250	0xbc27f7a8	-0.010251917
251	0xbc211148	-0.00983078
252	0x3d9f197d	0.077685334
253	0x3d7bc35a	0.0614656
254	0xbbef68a0	-0.0073061734
255	0xbda5f95b	-0.081042014

nn_layer.2.weight f4 [128, 256]
0	0xbc7b5468	-0.015339948
1	0xbc202fa0	-0.00977698
2	0x3d00d534	0.031453326
3	0xbca31e74	-0.019911982
4	0x3c485958	0.012228332
5	0xbd6ecf92	-0.058303423
6	0xbd3e0fc6	-0.04640176
7	0x3d3a2e64	0.045454398
8	0xbcba773c	-0.022761934
9	0xbd4b1d32	-0.04958839
10	0x3cf25c10	0.029584914
11	0x3cb24a7c	0.021764033
12	0x3c618d20	0.013766557
13	0x3a8cc780	0.0010740608
14	0xbce3ae6c	-0.027793132
15	0xbc3512a8	-0.011051811
16	0xbcc5219c	-0.024063878
17	0xbd1499ec	-0.036279604
18	0x3d339e32	0.04385204
19	0xbc53cf58	-0.012927853
20	0xba8637c0	-0.0010240003
21	0xbc088ce0	-0.0083343685
22	0xbd2bd4aa	-0.04195086
23	0x3d48e4ea	0.049046434
24	0xbcf00bc0	-0.029302478
25	0xbb9c7710	-0.0047749355
26	0xbc5c5080	-0.013446927
27	0x3d48b1ec	0.048997805
28	0xba918680	-0.0011102706
29	0x3c6d1328	0.014469899
30	0x3d6e1074	0.05812116
31	0x3d0b955a	0.03407798
32	0xbb712860	-0.0036797747
33	0x3d651d82	0.055936344
34	0x3ca238d8	0.019802496
35	0x3d0f335a	0.034961082
36	0x3ccf44a8	0.025301293
37	0xbd0a3da6	-0.0337502
38	0xbd1202bc	-0.03564714
39	0x3aa442c0	0.00125321
40	0xbd04471a	-0.03229437
41	0x3d3dda60	0.046350837
42	0x3a089000	0.0005209446
43	0x3d6b422c	0.057436153
44	0xbcfaa8cc	-0.030598067
45	0xbd153752	-0.03642971
46	0x3d510678	0.05103156
47	0xbd2f0a3c	-0.04273437
48	0x3b4b33a0	0.0031006113
49	0xbcb3d4ec	-0.021952115
50	0xbd2c785a	-0.042106964
51	0x3cec976c	0.028880797
52	0x3ccf07d0	0.02527228
53	0xbd2277b6	-0.039664946
54	0xbd372600	-0.044713974
55	0x3d47085a	0.04859195
56	0x3bfdd4d0	0.0077463165
57	0x3cfc5e8c	0.030806802
58	0xba75c200	-0.00093749166
59	0x3c453d20	0.012038499
60	0x3b78df60	0.0037974939
61	0xbd15c6dc	-0.0365666
62	0x3d0dea32	0.034647174
63	0x3c03c110	0.008041635
64	0x3ce64c4c	0.028112553
65	0x3c0c1d48	0.008551903
66	0x3d6fd8fa	0.058556534
67	0x3d34740e	0.04405599
68	0xbd7f8cec	-0.062390253
69	0x3d42da48	0.04757145
70	0xbced9e3c	-0.029006116
71	0x3d449e42	0.04800249
72	0xbc56c718	-0.013108991
73	0xbc82b2e0	-0.015954435
74	0xbd4fc374	-0.050723508
75	0xbcdef614	-0.027216949
76	0x3c6e06a0	0.014527947
77	0x3d707894	0.058708742
78	0xbccbc22c	-0.024872862
79	0xbd469f04	-0.048491493
80	0xbcb960a4	-0.02262909
81	0xbd0525e6	-0.032506846
82	0x3a061800	0.00051152706
83	0xbd089610	-0.033346236
84	0xbd2599be	-0.040429823
85	0x3c845828	0.016155317
86	0x3cd131ac	0.02553638
87	0xbb12caa0	-0.0022398606
88	0xbcf9e898	-0.030506417
89	0xbcb64e78	-0.022254214
90	0x3d03814e	0.032105736
91	0x3c9912e4	0.018685766
92	0xbc2b4870	-0.010454282
93	0xbc21f820	-0.009885818
94	0x3cd4feb4	0.026000358
95	0xbc172290	-0.009224549
96	0x3d5b1532	0.05348701
97	0x3b700a60	0.0036627278
98	0x3d4fcb2c	0.05073087
99	0x3d6e3b3a	0.05816195
100	0x3d62b068	0.055344015
101	0xbd2bab00	-0.041911125
102	0x3d23f834	0.040031627
103	0xbd2c0bd6	-0.042003475
104	0xbd303432	-0.043018527
105	0xbbf70730	-0.0075386986
106	0x3c8aa68c	0.016925119
107	0x3c4449e8	0.011980511
108	0x3ba0e7a0	0.0049104244
109	0x3d6ad156	0.057328545
110	0x3d105366	0.035235785
111	0xbcaaef58	-0.020866081
112	0xbbf8ce20	-0.0075929314
113	0xbd22cb8a	-0.03974489
114	0xbb182d60	-0.0023220405
115	0xbac24640	-0.0014821962
116	0x3d105a9a	0.035242654
117	0x3c5ce2f0	0.0134818405
118	0x3d012846	0.03153255
119	0xbcc79a1c	-0.024365477
120	0xbd508804	-0.050910965
121	0xbd62d494	-0.05537851
122	0x39bf9500	0.00036541373
123	0xbcce8040	-0.025207639
124	0x3ca75958	0.020428345
125	0xbd281fda	-0.041046
126	0xbc8b8824	-0.01703269
127	0xbc740308	-0.014893301
128	0xbd07a0e8	-0.033112437
129	0xbbe17150	-0.006879963
130	0xbd2473e0	-0.04014957
131	0xbc68eec8	-0.014217086
132	0xbc81cb9c	-0.015844159
133	0x3cd8b4a0	0.026453316
134	0xbd784720	-0.060614705
135	0xbc89a820	-0.016803801
136	0x3c89d838	0.016826734
137	0xba214580	-0.0006152019
138	0x3b5ee640	0.0034011751
139	0x3d139b82	0.036036976
140	0xbd2d8f1c	-0.042372808
141	0x3cc5cb78	0.024144873
142	0x3b55dec0	0.003263399
143	0x3d54868a	0.05188612
144	0x3d5d7cd2	0.054074116
145	0x3d7a906a	0.06117288
146	0x3aeb9340	0.0017972961
147	0x3c846780	0.016162634
148	0xbd7797ba	-0.060447432
149	0xbd096634	-0.033544734
150	0x3d54ab0a	0.051920928
151	0xbc934abc	-0.017979972
152	0x3b772180	0.0037709177
153	0x3d407cf0	0.04699415
154	0xbd5a4784	-0.05329086
155	0x3cb65f58	0.02226226
156	0x3d1e49f2	0.03864474
157	0xba399f00	-0.0007080883
158	0xbd0c5e14	-0.034269407
159	0x3d5cd054	0.053909615
160	0x3ce356a0	0.027751267
161	0x3cc23734	0.023707964
162	0xbd4abbf4	-0.049495652
163	0x3c823bb4	0.01589761
164	0x3cd162a4	0.02555973
165	0x3d659be4	0.056056872
166	0xbd6ea3b0	-0.058261573
167	0x3d20c096	0.039246164
168	0xbbc16a40	-0.0059025586
169	0xbb97ca10	-0.004632242
170	0x3c3c5608	0.011495121
171	0xbccfbebc	-0.025359504
172	0xbb82eff0	-0.003995888
173	0xbc0267d8	-0.007959329
174	0x3c887d14	0.016661204
175	0xbd5ff858	-0.0546802
176	0xbd2cb1d0	-0.042161763
177	0xbd4cd536	-0.05000802
178	0xbcfa15f8	-0.030528054
179	0xbd6dcb7c	-0.058055386
180	0x3d3ff2e8	0.046862513
181	0x3d2813e6	0.0410346
182	0x3d690130	0.056885898
183	0x3d5c882e	0.05384081
184	0xbc1fd068	-0.009754278
185	0x3d0330ea	0.03202907
186	0x3c88d410	0.016702682
187	0xbd573fb4	-0.052550986
188	0xbd6343b6	-0.055484496
189	0xbd421fa2	-0.04739345
190	0x3d19bdd4	0.03753455
191	0xbd34d424	-0.044147626
192	0x3c76ac40	0.015055716
193	0xbac1f880	-0.001479879
194	0xbd334a66	-0.043772124
195	0x3c339990	0.010961905
196	0x3bcd0ba0	0.0062574893
197	0x3cdcc12c	0.02694758
198	0x3cf58d70	0.02997467
199	0x3d396df0	0.04527086
200	0x3d3402c4	0.04394795
201	0xbd609578	-0.054830045
202	0xbbbda940	-0.0057879984
203	0xbd6aa6e0	-0.05728805
204	0xbcc9e078	-0.024643168
205	0x3d21b2f2	0.039477296
206	0x3d33e0de	0.043915622
207	0x3d15ffb2	0.036620803
208	0x3d455eba	0.04818604
209	0x3bb5b2c0	0.0055449903
210	0xbccd4984	-0.025059469
211	0xbd086e70	-0.033308446
212	0x3d5e3d46	0.054257654
213	0xbd5d62ea	-0.05404941
214	0x3d47e7f2	0.048805185
215	0xbc4a70c8	-0.012355991
216	0xbd5bc8ee	-0.05365842
217	0xbd6fc1b8	-0.058534354
218	0xbac74bc0	-0.001520507
219	0x3c9fcde4	0.019507356
220	0x3c895c94	0.016767778
221	0x3d5adf6a	0.05343572
222	0x3ce19c58	0.02754037
223	0xbd032f58	-0.032027572
224	0xbd6454bc	-0.05574487
225	0x3d4c30de	0.04985129
226	0x3cc0fd6c	0.023558341
227	0xbd6c8d0e	-0.057751708
228	0x3cd86dec	0.026419602
229	0x3d1a8580	0.03772497
230	0x3d2086da	0.039191104
231	0xbd35a5a8	-0.044347435
232	0x3c945728	0.018107966
233	0x3c976c44	0.018484242
234	0x3c8b1784	0.016978987
235	0xbcc17fe0	-0.023620546
236	0x3d00b498	0.031422228
237	0xbcedbb24	-0.0290199
238	0x3d657c7c	0.05602692
239	0xbd243924	-0.040093556
240	0x3cae4e4c	0.02127757
241	0xbd2a2a1a	-0.041544057
242	0x3d102ece	0.035200886
243	0xbd1fbbec	-0.038997576
244	0x3c90be04	0.017668732
245	0x3d1afa04	0.03783609
246	0xbd529d0a	-0.051419295
247	0x3cff8e18	0.031195685
248	0xbd183bfe	-0.037166588
249	0x3cf51eb0	0.02992186
250	0x3d16574e	0.036704354
251	0x3ca73a04	0.020413406
252	0x3b8a76c0	0.004225582
253	0xbd335096	-0.043778025
254	0x3bec8eb0	0.007219158
255	0xbc8a5e38	-0.01689063

nn_layer.2.bias f4 [128]
0	0xbd614c94	-0.05500467
1	0x3baaca40	0.0052120984
2	0xbd01154a	-0.031514443
3	0xbcaf8f00	-0.021430492
4	0xbd631ae0	-0.055445552
5	0x3d57b6d2	0.052664585
6	0x3cb124a4	0.021623917
7	0x3d48783e	0.048942797
8	0x3c8cee68	0.017203525
9	0x3d0adaee	0.033900194
10	0xbd00036e	-0.03125327
11	0x3cbc664c	0.022997998
12	0xbc0cdf30	-0.008598134
13	0xbb195ac0	-0.0023400038
14	0x3d10cda4	0.035352364
15	0x3b9c9520	0.0047785193
16	0x3d5bf740	0.053702593
17	0x3cff09f4	0.031132676
18	0x3d5c74b8	0.05382225
19	0xbd2143bc	-0.039371237
20	0xba531e00	-0.00080534816
21	0xbc4d3750	-0.012525395
22	0x3d527dbe	0.05138945
23	0x3d0b03d0	0.033939183
24	0xbce78ab0	-0.028264374
25	0x3d2a4bd2	0.041576214
26	0x3d4fb776	0.05071207
27	0x3cbb74c0	0.02288282
28	0x3b306400	0.0026915073
29	0x3cd39070	0.02582571
30	0x3b889870	0.0041685626
31	0xbd4348c6	-0.047676824
32	0x3c204780	0.009782672
33	0xbd359f72	-0.044341512
34	0x3d290256	0.041261993
35	0x3d5a1b26	0.053248547
36	0x3d5e4acc	0.05427055
37	0xbd6dab76	-0.058024846
38	0x3d304fa6	0.04304471
39	0xbbc96a80	-0.006146729
40	0xbc5ad378	-0.013356082
41	0xbd2fc736	-0.04291459
42	0x3c79a8d8	0.015238009
43	0x3d567708	0.05235961
44	0x3c385940	0.011251748
45	0xbbcbed90	-0.006223388
46	0x3bdb06c0	0.0066841543
47	0xbcad59b0	-0.02116093
48	0xbbc04e60	-0.005868718
49	0x3c967698	0.018367097
50	0xbd50849a	-0.05090771
51	0x3d32743e	0.04356789
52	0xbd5074b2	-0.05089254
53	0x3d4b7182	0.049668796
54	0x3d5707e0	0.052497745
55	0xbc891d98	-0.016737744
56	0x3ce1213c	0.027481668
57	0x3d4dc144	0.05023314
58	0xbb0124e0	-0.0019705817
59	0x3d317504	0.043324485
60	0xbcac1868	-0.021007732
61	0xbd6f3772	-0.058402486
62	0xbd278774	-0.040900663
63	0xbc32efe0	-0.0109214485
64	0x3cb030c4	0.021507628
65	0xbd6423a6	-0.05569806
66	0x3c5205c0	0.012818754
67	0xbc340728	-0.010988034
68	0x3d31016a	0.04321424
69	0x3d725c68	0.059170157
70	0x3c098df0	0.008395657
71	0x3abe3a00	0.0014513135
72	0x3c691860	0.014227003
73	0xbc0be7a8	-0.008539118
74	0x3d0a9a74	0.033838704
75	0xbd2b15ce	-0.04176884
76	0x3d3917ea	0.04518882
77	0x3d1fbf04	0.039000526
78	0x3c5a4e40	0.01332432
79	0xbbe8b3f0	-0.0071015283
80	0xbd60caae	-0.05488079
81	0xbc021518	-0.007939599
82	0x3c37f180	0.011227012
83	0xbc76b6b0	-0.0150582045
84	0x3d35ba42	0.044367082
85	0xbc8c8e14	-0.017157592
86	0x3d6e4d08	0.05817893
87	0xbd653170	-0.05595535
88	0xbd295b5c	-0.041346893
89	0xbbaa6160	-0.0051995963
90	0x3d5a15a0	0.05324328
91	0x3cb4ad00	0.02205515
92	0xbd41e3c4	-0.047336355
93	0x3c2bda18	0.010489009
94	0xbc498c10	-0.01230146
95	0xbd1ba84a	-0.03800229
96	0xbd42e442	-0.047580965
97	0x3cbc5d34	0.022993661
98	0x3c972eb8	0.018454894
99	0x3d695bba	0.056972243
100	0xbd222434	-0.039585307
101	0xbc1c5860	-0.009542555
102	0xbd310abe	-0.043223135
103	0xbc9ad528	-0.018900469
104	0xbc9bd968	-0.019024566
105	0x3ca01800	0.019542694
106	0x3d6f65b4	0.0584466
107	0x3d6bc362	0.05755938
108	0x3d00e3c8	0.03146723
109	0x3d3133fa	0.04326246
110	0xbd7ff754	-0.06249173
111	0x3ca64e38	0.02030097
112	0x3d317a0e	0.04332929
113	0xbc8e8b28	-0.01740034
114	0x3d002924	0.031289235
115	0x3cad8618	0.021182105
116	0xbc4f7b10	-0.012663618
117	0x3d4397f8	0.04775235
118	0xbd3f2150	-0.04666263
119	0x3c1e3988	0.009657271
120	0x3bfb8f60	0.0076770037
121	0x3d373cb4	0.044735625
122	0x3d5f07d4	0.054450825
123	0xbd531d0a	-0.051541366
124	0x3c523d20	0.012831956
125	0xbd7ffcea	-0.062497057
126	0x3d4973fa	0.04918287
127	0x3d663dd8	0.056211323

actor_layer.0.weight f4 [18, 128]
0	0x3d9b6ab1	0.07588709
1	0xbb4a2ba0	-0.0030848756
2	0xbd945cd5	-0.07244269
3	0xbd9f228c	-0.07770261
4	0xbb1b87a0	-0.0023731962
5	0xbd201476	-0.039082013
6	0xbd6bbff0	-0.057556093
7	0x3d9c8be7	0.07643872
8	0xbd45af3f	-0.04826283
9	0x3da6845f	0.081307165
10	0x3c689570	0.014195785
11	0xbb7cf1e0	-0.0038596317
12	0xbc837648	-0.016047612
13	0xbc02cd20	-0.007983476
14	0x3d74d2d6	0.05977138
15	0xbd24ec7f	-0.040264603
16	0xbd0866ca	-0.033301152
17	0xbd7723a0	-0.06033671
18	0x3db108a1	0.08644224
19	0x3d70166e	0.05861514
20	0xbc1e9460	-0.00967893
21	0xbb459e00	-0.003015399
22	0x3da1a5ef	0.078929774
23	0x3d71c2ba	0.059023596
24	0x3d8cff2f	0.0688461
25	0x3920aa00	0.00015322119
26	0x3da90d35	0.08254472
27	0xbcb0a614	-0.021563567
28	0x3ce9851c	0.028505854
29	0x3d8af07b	0.06784149
30	0x3d80fde7	0.06298428
31	0xbcdfbaf6	-0.02731083
32	0x3d95333d	0.072851636
33	0x3d673eb6	0.05645629
34	0xbda26a50	-0.07930434
35	0xbc2c3458	-0.010510527
36	0x3d2bb0ea	0.041916765
37	0x3cab46e4	0.020907827
38	0xbd502cac	-0.050823852
39	0x3c2b12c0	0.010441482
40	0xbd9c79a9	-0.07640392
41	0x3d068096	0.032837473
42	0xbd0fada4	-0.035077706
43	0x3cf6b84c	0.030117176
44	0xbca583bc	-0.020204417
45	0xbd1081dc	-0.035280094
46	0x3c0fa338	0.008766942
47	0x3d3ce236	0.04611417
48	0x3b532060	0.0032215342
49	0x3dad28ff	0.08455085
50	0x3d0430f2	0.03227324
51	0xbd6ea2d0	-0.05826074
52	0xbd8bd186	-0.06827073
53	0x3d02bf8c	0.031920955
54	0xbd744d46	-0.059644006
55	0x3d623936	0.05523034
56	0x3d8c7f55	0.06860224
57	0x3d4a6592	0.04941327
58	0x3cfd79e8	0.030941918
59	0x3cfc9e48	0.030837193
60	0xbd6bbaa8	-0.057551056
61	0xbc9852f8	-0.01859425
62	0x3d0ee6a4	0.034887925
63	0x3cbcb80c	0.02303698
64	0x3d174c9e	0.036938302
65	0x3d802fa3	0.06259086
66	0xbc5fbb78	-0.013655536
67	0x3d822f99	0.06356735
68	0xbcc66acc	-0.024220847
69	0x3d8e261f	0.06940865
70	0xbce680f2	-0.028137658
71	0xbc1d2318	-0.0095908865
72	0xbd75d2ab	-0.06001536
73	0xbd9ac348	-0.07556778
74	0xbd870795	-0.06593243
75	0xbd3357a3	-0.04378475
76	0xbdab85aa	-0.08375104
77	0x3d95a305	0.07306484
78	0x3db24c9b	0.087060176
79	0x3cde6f8c	0.0271528
80	0x3b4f43e0	0.003162615
81	0x3bc440f0	0.0059891865
82	0x3d94336b	0.0723637
83	0xbd08cd57	-0.033398952
84	0xbc0c3310	-0.008557096
85	0x3d8592e7	0.0652216
86	0xbd04b69d	-0.032400716
87	0x3ca4cde8	0.020117715
88	0x3ccf76a4	0.025325127
89	0x3d233b8e	0.039851718
90	0x3d9b5c83	0.075860046
91	0x3d03f0e0	0.03221214
92	0x3c31e808	0.010858543
93	0xbd14969c	-0.036276445
94	0xbd5d31aa	-0.05400244
95	0xbd33b99d	-0.043878186
96	0xbc1749c8	-0.009233899
97	0xbcb3e384	-0.021959074
98	0x3d65b876	0.05608412
99	0x3cf578e8	0.02996488
100	0x3b8aee70	0.0042398497
101	0xbcf7d3a2	-0.030252282
102	0x3c23da30	0.01000075
103	0x3cb795d0	0.022410303
104	0xbd84ae7b	-0.06478592
105	0xbda1b719	-0.07896251
106	0xbd94effd	-0.07272337
107	0x3b9e4a10	0.0048306063
108	0x3c570520	0.0131237805
109	0x3db0c1e7	0.08630734
110	0xbce29486	-0.027658712
111	0x3d7b9cda	0.061428882
112	0xbd7cf980	-0.06176138
113	0x3d92de41	0.07171298
114	0xbd162dce	-0.036664777
115	0x3d1bc572	0.038030095
116	0xbd57adc8	-0.052655965
117	0x3d661e66	0.056181334
118	0x3d5e1e92	0.054228373
119	0xbc36cb58	-0.011156879
120	0xbd4567df	-0.048194762
121	0xbd3abd4a	-0.045590676
122	0x3db4e953	0.088335656
123	0x3d81059b	0.06299897
124	0xbc9eebe0	-0.019399583
125	0x3d764046	0.06011989
126	0x3cd6bf78	0.026214346
127	0x3d06bcf4	0.032895043
128	0x3d390936	0.0451748
129	0xbd24496b	-0.04010908
130	0xbd548066	-0.051880263
131	0x3da8bb39	0.08238835
132	0x3d04279c	0.032264337
133	0xbd59bde9	-0.053159628
134	0xbcbf2c78	-0.023336634
135	0x3c23d568	0.0099996105
136	0x3d7a96e6	0.061179064
137	0x3d94a7d7	0.072585754
138	0x3d1c0e56	0.03809961
139	0xbbc7e660	-0.006100461
140	0x3d9cde47	0.076595835
141	0x3bcf35c0	0.006323546
142	0xbd80cdc5	-0.062892474
143	0xbd2d49b7	-0.042306628
144	0x3d474316	0.048647963
145	0x3cb10308	0.02160789
146	0xbd35b3b1	-0.04436082
147	0x3d8c5b9b	0.0685341
148	0x3c096d60	0.008387893
149	0xbd5e0913	-0.054207873
150	0x3d5c821a	0.053835012
151	0x3d389cde	0.045071475
152	0xbcd6ed6a	-0.026236255
153	0x3d89c615	0.06727234
154	0x3ceb2520	0.028704226
155	0x3d88ea09	0.06685264
156	0x3be9a820	0.0071306378
157	0xbc5a4c18	-0.013323806
158	0xbda5a37c	-0.08087823
159	0xbd58e5cb	-0.052953523
160	0xbd7834b4	-0.060597137
161	0x3d51d652	0.051229782
162	0x3c3a0040	0.011352599
163	0x3c8a5224	0.01688487
164	0xbdaf4ce0	-0.085595846
165	0xbb13a6c0	-0.002252981
166	0x3c1d10f8	0.009586565
167	0xbd18dfdd	-0.037322868
168	0xbd33ffd1	-0.043945137
169	0x3ca1c198	0.019745633
170	0xbd18734d	-0.037219334
171	0x3c4ea1b8	0.012611799
172	0x3d58686a	0.052833952
173	0x3d50843a	0.05090735
174	0xbc601a48	-0.013678141
175	0x3c9ca884	0.019123323
176	0x3d2a2c5e	0.041546218
177	0x3d6ca65a	0.057775833
178	0xbda34450	-0.07972014
179	0xbd0bacc1	-0.034100298
180	0xbd1e5603	-0.038656246
181	0x3db195e1	0.08671165
182	0xbadb7f40	-0.0016746297
183	0x3d192c2e	0.03739565
184	0xbd9b4be4	-0.07582834
185	0x3cc2d5ac	0.023783527
186	0x3c050b58	0.00812038
187	0x3bd33750	0.0064458027
188	0xbcf8ff9a	-0.030395318
189	0x3db2b307	0.08725553
190	0x3cc054e4	0.023477979
191	0xbd2f2b03	-0.04276563
192	0x3d7d41e2	0.06183041
193	0x3c6c9cd8	0.014441691
194	0x3cc25c2c	0.023725592
195	0xbd9a618d	-0.075381376
196	0x3d8a11b1	0.067416556
197	0x3cc6d564	0.024271674
198	0x3c999efc	0.018752567
199	0xbcaa1728	-0.020762995
200	0x3c8fb86c	0.017543994
201	0x3d8ab471	0.06772698
202	0xbc4ef210	-0.012630954
203	0x3d61031a	0.0549346
204	0xbd0f5d3a	-0.035001017
205	0xbd8a94b4	-0.06766644
206	0x3cd115ec	0.025523148
207	0xbd011a23	-0.031519067
208	0xbd6f5399	-0.058429334
209	0x3cb0eda4	0.02159769
210	0x3bad9f10	0.0052985027
211	0xbcc7ab34	-0.024373628
212	0x3d3bc03e	0.045837633
213	0x39a47400	0.00031366944
214	0x3d942dd1	0.07235301
215	0x3b4f6a00	0.0031648874
216	0x3db1a8ef	0.086748
217	0x3d28a1aa	0.0411698
218	0xbd1fed79	-0.03904483
219	0xbd2d3fcd	-0.042297173
220	0xbd1738ac	-0.03691928
221	0x3d30d586	0.04317238
222	0x3c57f670	0.013181314
223	0x3d28cd4a	0.041211404
224	0xbd913863	-0.07090833
225	0x3d770526	0.060307644
226	0xbb044720	-0.0020183995
227	0xbdaa210e	-0.08307086
228	0x3d7a491a	0.06110487
229	0xbdb04aa9	-0.0860799
230	0x3d443efe	0.047911637
231	0x3d2b50ee	0.041825227
232	0xbcda3e52	-0.026641045
233	0xbc961394	-0.018319882
234	0xbd512e83	-0.051069748
235	0xbd9f26a8	-0.07771045
236	0xbc9e29f4	-0.019307114
237	0xbdb1e581	-0.086863525
238	0xbd8dd6f0	-0.06925762
239	0x3cad0904	0.021122463
240	0xbd307176	-0.043076955
241	0xbd231787	-0.03981736
242	0x3dad73a1	0.0846932
243	0xbda28435	-0.07935373
244	0x3c710960	0.014711708
245	0xbd669086	-0.056290172
246	0x3bde24d0	0.0067792907
247	0x3da782b7	0.08179229
248	0xbc8ae9b4	-0.016957141
249	0xbd717f3e	-0.05895924
250	0x3cd1bc0c	0.025602363
251	0x3d4a2982	0.04935599
252	0xbaef6440	-0.001826413
253	0x3bb67170	0.005567722
254	0x3d88d265	0.066807546
255	0xbb1042a0	-0.0022012368

actor_layer.0.bias f4 [18]
0	0xbcb7a5a8	-0.022417858
1	0xbc3e7990	-0.011625662
2	0xbb43cea0	-0.0029877797
3	0x3d5becaa	0.053692497
4	0xbdaaf3d9	-0.083472915
5	0xbdb22a0a	-0.086994246
6	0xbccf1558	-0.025278732
7	0xbccf1244	-0.025277264
8	0xbd0e1f6b	-0.03469793
9	0x3cbf3e54	0.02334515
10	0x3c328170	0.010895118
11	0xbda9b09a	-0.08285637
12	0x3da33695	0.07969395
13	0x3d4ea582	0.05045081
14	0xbd0687d0	-0.032844365
15	0x3d5b76da	0.053580143
16	0xbd3cabc4	-0.046062246
17	0x3d23079a	0.03980217

critic_layer.0.weight f4 [1, 128]
0	0x3d0d65a6	0.034520768
1	0x3cab9ee8	0.020949796
2	0xbd9e7eb3	-0.0773901
3	0x3da0b663	0.078472875
4	0x3d8a4563	0.06751516
5	0xbdaab158	-0.08334607
6	0xbd3624d2	-0.04446871
7	0x3d833075	0.06405727
8	0x3d722236	0.059114657
9	0xbd1f5f8b	-0.038909476
10	0xbcf64a6a	-0.03006478
11	0xbd36678d	-0.044532347
12	0xbc580c00	-0.013186455
13	0xbd2c8920	-0.04212296
14	0x3d037064	0.032089606
15	0x3d60a88e	0.054848246
16	0xbd95f1c8	-0.07321507
17	0xbcf6c8ca	-0.03012504
18	0xbd666180	-0.056245327
19	0x3ce8c838	0.028415784
20	0xbc760950	-0.015016869
21	0x3d57403a	0.052551486
22	0x3d987a87	0.07445245
23	0x3d35511a	0.044266798
24	0xbda2d0d4	-0.07949987
25	0x3b8d7f90	0.004318185
26	0x3da180b1	0.07885874
27	0xbd21c1d4	-0.03949149
28	0xbced70e2	-0.02898449
29	0xbc0e4758	-0.008684002
30	0x3bf47500	0.0074602365
31	0x3c8994fc	0.016794674
32	0xbd9bed23	-0.076135896
33	0x3b043a20	0.0020176247
34	0xbd9f2673	-0.077710055
35	0xbd1b38a6	-0.03789582
36	0xbba183a0	-0.004929021
37	0x3cd8b580	0.026453733
38	0x3d88d4ab	0.06681188
39	0xbd0c4e79	-0.034254525
40	0xbd236f79	-0.03990123
41	0xbccbb72c	-0.024867617
42	0xbd6e1632	-0.058126636
43	0x3d6524c6	0.055943273
44	0xbc3a72c8	-0.011379905
45	0x3d18bfce	0.037292294
46	0x3db07207	0.08615499
47	0x3d0ce880	0.034401417
48	0xbbf78830	-0.0075540766
49	0xbd99a5b7	-0.07502311
50	0x3d724022	0.059143193
51	0x3c770268	0.015076257
52	0xbcaa18bc	-0.020763747
53	0x3dadd463	0.08487775
54	0xbdad8dbf	-0.084743015
55	0xbd86d998	-0.065844715
56	0x3d45bad2	0.04827387
57	0xbcdc1dac	-0.026869617
58	0xbd6dd154	-0.05806096
59	0x3d8d4441	0.06897784
60	0x3cc49ad4	0.023999609
61	0xbd5dfeef	-0.0541982
62	0xbd999653	-0.07499375
63	0xbd9b58f6	-0.07585327
64	0x3da350d9	0.07974405
65	0xbd716716	-0.0589362
66	0x3ce1f484	0.027582414
67	0xbda01969	-0.078173466
68	0x3d6e3cfe	0.058163635
69	0x3db23a51	0.08702529
70	0x3b8aeb60	0.0042394847
71	0xbcbf5b08	-0.023358837
72	0xbd330244	-0.043703333
73	0x3c696950	0.0142463
74	0x3d1c9f26	0.038237713
75	0x3d9ae79f	0.075637095
76	0xbd41c5c8	-0.04730776
77	0x3c63a5c0	0.013894498
78	0xbcff9cc4	-0.031202681
79	0xbdaf2b4d	-0.08553181
80	0xbd22b6a8	-0.039724976
81	0x3d2867ba	0.041114546
82	0xbd13b483	-0.03606082
83	0xbd3ce004	-0.046112075
84	0x3d1ae176	0.037812673
85	0xbd8c01f4	-0.0683631
86	0xbbb62d60	-0.0055596083
87	0xbd5b3629	-0.053518448
88	0x3da082e5	0.07837466
89	0x3cf4616c	0.02983161
90	0xbd8c0188	-0.068362296
91	0x3b95c970	0.0045711324
92	0xbdb3a39f	-0.087714426
93	0xbd10a0cc	-0.035309598
94	0xbd33c8f3	-0.043892812
95	0xbc25a578	-0.010110252
96	0x3bc49580	0.005999267
97	0x3d45c592	0.04828412
98	0xbc9ae84c	-0.018909596
99	0xbb047240	-0.00202097
100	0x3d8da201	0.069156654
101	0xbce1ce16	-0.02756409
102	0x3d68445a	0.05670581
103	0x3d66182e	0.056175403
104	0xbc944b10	-0.018102199
105	0xbd894e54	-0.06704393
106	0x3d6472ca	0.055773534
107	0x3d7c1026	0.061538838
108	0x3d65c94a	0.056100167
109	0xbcd0a08c	-0.02546718
110	0xbd1560aa	-0.03646914
111	0x3d0bb6aa	0.03410975
112	0x383e0000	4.529953e-05
113	0xbd94d06c	-0.07266316
114	0x3d0de4e2	0.034642108
115	0xbd8e00f8	-0.069337785
116	0x3d91631b	0.07098981
117	0xbd96bd45	-0.07360319
118	0xbd570221	-0.052492265
119	0xbcc6dafc	-0.024274342
120	0x3da7edbd	0.08199642
121	0x3d37cde2	0.04487408
122	0xbcf84af4	-0.030309178
123	0x3cb9b504	0.022669323
124	0xbd623447	-0.055225637
125	0x3d7401f6	0.059572183
126	0xbc8ed094	-0.017433442
127	0xbb988bc0	-0.0046553314
